…
      " batch_normalization_2 (BatchNo  (None, 147, 147, 64  192        ['conv2d_2[0][0]']               \n",
      " rmalization)                   )                                                                 \n",
      "                                                                                                  \n",
      " activation_2 (Activation)      (None, 147, 147, 64  0           ['batch_normalization_2[0][0]']  \n",
      "                                )                                                                 \n",
      "                                                                                                  \n",
      " max_pooling2d (MaxPooling2D)   (None, 73, 73, 64)   0           ['activation_2[0][0]']           \n",
      "                                                                                                  \n",
      " conv2d_3 (Conv2D)              (None, 73, 73, 80)   5120        ['max_pooling2d[0][0]']          \n",
      "                                                                                                  \n",
      " batch_normalization_3 (BatchNo  (None, 73, 73, 80)  240         ['conv2d_3[0][0]']               \n",
      " rmalization)                                                                                     \n",
      "                                                                                                  \n",
      " activation_3 (Activation)      (None, 73, 73, 80)   0           ['batch_normalization_3[0][0]']  \n",
      "                                                                                                  \n",
      " conv2d_4 (Conv2D)              (None, 71, 71, 192)  138240      ['activation_3[0][0]']           \n",
      "                                                                                                  \n",
      " batch_normalization_4 (BatchNo  (None, 71, 71, 192)  576        ['conv2d_4[0][0]']               \n",
      " rmalization)                                                                                     \n",
      "                                                                                                  \n",
      " activation_4 (Activation)      (None, 71, 71, 192)  0           ['batch_normalization_4[0][0]']  \n",
      "                                                                                                  \n",
      " max_pooling2d_1 (MaxPooling2D)  (None, 35, 35, 192)  0          ['activation_4[0][0]']           \n",
      "                                                                                                  \n",
      " conv2d_8 (Conv2D)              (None, 35, 35, 64)   12288       ['max_pooling2d_1[0][0]']        \n",
      "                                                                                                  \n",
      " batch_normalization_8 (BatchNo  (None, 35, 35, 64)  192         ['conv2d_8[0][0]']               \n",
      " rmalization)                                                                                     \n",
      "                                                                                                  \n",
      " activation_8 (Activation)      (None, 35, 35, 64)   0           ['batch_normalization_8[0][0]']  \n",
      "                                                                                                  \n",
      " conv2d_6 (Conv2D)              (None, 35, 35, 48)   9216        ['max_pooling2d_1[0][0]']        \n",
      "                                                                                                  \n",
      " conv2d_9 (Conv2D)              (None, 35, 35, 96)   55296       ['activation_8[0][0]']           \n",
      "                                                                                                  \n",
      " batch_normalization_6 (BatchNo  (None, 35, 35, 48)  144         ['conv2d_6[0][0]']               \n",
      " rmalization)                                                                                     \n",
      "                                                                                                  \n",
      " batch_normalization_9 (BatchNo  (None, 35, 35, 96)  288         ['conv2d_9[0][0]']               \n",
      " rmalization)                                                                                     \n",
      "                                                                                                  \n",
      " activation_6 (Activation)      (None, 35, 35, 48)   0           ['batch_normalization_6[0][0]']  \n",
      "                                                                                                  \n",
      " activation_9 (Activation)      (None, 35, 35, 96)   0           ['batch_normalization_9[0][0]']  \n",
      "                                                                                                  \n",
      " average_pooling2d (AveragePool  (None, 35, 35, 192)  0          ['max_pooling2d_1[0][0]']        \n",
      " ing2D)                                                                                           \n",
      "                                                                                                  \n",
      " conv2d_5 (Conv2D)              (None, 35, 35, 64)   12288       ['max_pooling2d_1[0][0]']        \n",
      "                                                                                                  \n",
      " conv2d_7 (Conv2D)              (None, 35, 35, 64)   76800       ['activation_6[0][0]']           \n",
      "                                                                                                  \n",
      " conv2d_10 (Conv2D)             (None, 35, 35, 96)   82944       ['activation_9[0][0]']           \n",
      "                                                                                                  \n",
      " conv2d_11 (Conv2D)             (None, 35, 35, 32)   6144        ['average_pooling2d[0][0]']      \n",
      "                                                                                                  \n",
      " batch_normalization_5 (BatchNo  (None, 35, 35, 64)  192         ['conv2d_5[0][0]']               \n",
      " rmalization)                                                                                     \n",
      "                                                                                                  \n",
      " batch_normalization_7 (BatchNo  (None, 35, 35, 64)  192         ['conv2d_7[0][0]']               \n",
      " rmalization)                                                                                     \n",
      "                                                                                                  \n",
      " batch_normalization_10 (BatchN  (None, 35, 35, 96)  288         ['conv2d_10[0][0]']              \n",
      " ormalization)                                                                                    \n",
      "                                                                                                  \n",
      " batch_normalization_11 (BatchN  (None, 35, 35, 32)  96          ['conv2d_11[0][0]']              \n",
      " ormalization)                                                                                    \n",
      "                                                                                                  \n",
      " activation_5 (Activation)      (None, 35, 35, 64)   0           ['batch_normalization_5[0][0]']  \n",
      "                                                                                                  \n",
      " activation_7 (Activation)      (None, 35, 35, 64)   0           ['batch_normalization_7[0][0]']  \n",
      "                                                                                                  \n",
      " activation_10 (Activation)     (None, 35, 35, 96)   0           ['batch_normalization_10[0][0]'] \n",
      "                                                                                                  \n",
      " activation_11 (Activation)     (None, 35, 35, 32)   0           ['batch_normalization_11[0][0]'] \n",
      "                                                                                                  \n",
      " mixed0 (Concatenate)           (None, 35, 35, 256)  0           ['activation_5[0][0]',           \n",
      "                                                                  'activation_7[0][0]',           \n",
      "                                                                  'activation_10[0][0]',          \n",
      "                                                                  'activation_11[0][0]']          \n",
      "                                                                                                  \n",
      " conv2d_15 (Conv2D)             (None, 35, 35, 64)   16384       ['mixed0[0][0]']                 \n",
      "                                                                                                  \n",
      " batch_normalization_15 (BatchN  (None, 35, 35, 64)  192         ['conv2d_15[0][0]']              \n",
      " ormalization)                                                                                    \n",
      "                                                                                                  \n",
      " activation_15 (Activation)     (None, 35, 35, 64)   0           ['batch_normalization_15[0][0]'] \n",
      "                                                                                                  \n",
      " conv2d_13 (Conv2D)             (None, 35, 35, 48)   12288       ['mixed0[0][0]']                 \n",
      "                                                                                                  \n",
      " conv2d_16 (Conv2D)             (None, 35, 35, 96)   55296       ['activation_15[0][0]']          \n",
      "                                                                                                  \n",
      " batch_normalization_13 (BatchN  (None, 35, 35, 48)  144         ['conv2d_13[0][0]']              \n",
      " ormalization)                                                                                    \n",
      "                                                                                                  \n",
      " batch_normalization_16 (BatchN  (None, 35, 35, 96)  288         ['conv2d_16[0][0]']              \n",
      " ormalization)                                                                                    \n",
      "                                                                                                  \n",
      " activation_13 (Activation)     (None, 35, 35, 48)   0           ['batch_normalization_13[0][0]'] \n",
      "                                                                                                  \n",
      " activation_16 (Activation)     (None, 35, 35, 96)   0           ['batch_normalization_16[0][0]'] \n",
      "                                                                                                  \n",
      " average_pooling2d_1 (AveragePo  (None, 35, 35, 256)  0          ['mixed0[0][0]']                 \n",
      " oling2D)                                                                                         \n",
      "                                                                                                  \n",
      " conv2d_12 (Conv2D)             (None, 35, 35, 64)   16384       ['mixed0[0][0]']                 \n",
      "                                                                                                  \n",
      " conv2d_14 (Conv2D)             (None, 35, 35, 64)   76800       ['activation_13[0][0]']          \n",
      "                                                                                                  \n",
      " conv2d_17 (Conv2D)             (None, 35, 35, 96)   82944       ['activation_16[0][0]']          \n",
      "                                                                                                  \n",
      " conv2d_18 (Conv2D)             (None, 35, 35, 64)   16384       ['average_pooling2d_1[0][0]']    \n",
      "                                                                                                  \n",
      " batch_normalization_12 (BatchN  (None, 35, 35, 64)  192         ['conv2d_12[0][0]']              \n",
      " ormalization)                                                                                    \n",
      "                                                                                                  \n",
      " batch_normalization_14 (BatchN  (None, 35, 35, 64)  192         ['conv2d_14[0][0]']              \n",
      " ormalization)                                                                                    \n",
      "                                                                                                  \n",
      " batch_normalization_17 (BatchN  (None, 35, 35, 96)  288         ['conv2d_17[0][0]']              \n",
      " ormalization)                                                                                    \n",
      "                                                                                                  \n",
      " batch_normalization_18 (BatchN  (None, 35, 35, 64)  192         ['conv2d_18[0][0]']              \n",
      " ormalization)                                                                                    \n",
      "                                                                                                  \n",
      " activation_12 (Activation)     (None, 35, 35, 64)   0           ['batch_normalization_12[0][0]'] \n",
      "                                                                                                  \n",
      " activation_14 (Activation)     (None, 35, 35, 64)   0           ['batch_normalization_14[0][0]'] \n",
      "                                                                                                  \n",
      " activation_17 (Activation)     (None, 35, 35, 96)   0           ['batch_normalization_17[0][0]'] \n",
      "                                                                                                  \n",
      " activation_18 (Activation)     (None, 35, 35, 64)   0           ['batch_normalization_18[0][0]'] \n",
      "                                                                                                  \n",
      " mixed1 (Concatenate)           (None, 35, 35, 288)  0           ['activation_12[0][0]',          \n",
      "                                                                  'activation_14[0][0]',          \n",
      "                                                                  'activation_17[0][0]',          \n",
      "                                                                  'activation_18[0][0]']          \n",
      "                                                                                                  \n",
      " conv2d_22 (Conv2D)             (None, 35, 35, 64)   18432       ['mixed1[0][0]']                 \n",
      "                                                                                                  \n",
      " batch_normalization_22 (BatchN  (None, 35, 35, 64)  192         ['conv2d_22[0][0]']              \n",
      " ormalization)                                                                                    \n",
      "                                                                                                  \n",
      " activation_22 (Activation)     (None, 35, 35, 64)   0           ['batch_normalization_22[0][0]'] \n",
      "                                                                                                  \n",
      " conv2d_20 (Conv2D)             (None, 35, 35, 48)   13824       ['mixed1[0][0]']                 \n",
      "                                                                                                  \n",
      " conv2d_23 (Conv2D)             (None, 35, 35, 96)   55296       ['activation_22[0][0]']          \n",
      "                                                                                                  \n",
      " batch_normalization_20 (BatchN  (None, 35, 35, 48)  144         ['conv2d_20[0][0]']              \n",
      " ormalization)                                                                                    \n",
      "                                                                                                  \n",
      " batch_normalization_23 (BatchN  (None, 35, 35, 96)  288         ['conv2d_23[0][0]']              \n",
      " ormalization)                                                                                    \n",
      "                                                                                                  \n",
      " activation_20 (Activation)     (None, 35, 35, 48)   0           ['batch_normalization_20[0][0]'] \n",
      "                                                                                                  \n",
      " activation_23 (Activation)     (None, 35, 35, 96)   0           ['batch_normalization_23[0][0]'] \n",
      "                                                                                                  \n",
      " average_pooling2d_2 (AveragePo  (None, 35, 35, 288)  0          ['mixed1[0][0]']                 \n",
      " oling2D)                                                                                         \n",
      "                                                                                                  \n",
      " conv2d_19 (Conv2D)             (None, 35, 35, 64)   18432       ['mixed1[0][0]']                 \n",
      "                                                                                                  \n",
      " conv2d_21 (Conv2D)             (None, 35, 35, 64)   76800       ['activation_20[0][0]']          \n",
      "                                                                                                  \n",
      " conv2d_24 (Conv2D)             (None, 35, 35, 96)   82944       ['activation_23[0][0]']          \n",
      "                                                                                                  \n",
      " conv2d_25 (Conv2D)             (None, 35, 35, 64)   18432       ['average_pooling2d_2[0][0]']    \n",
      "                                                                                                  \n",
      " batch_normalization_19 (BatchN  (None, 35, 35, 64)  192         ['conv2d_19[0][0]']              \n",
      " ormalization)                                                                                    \n",
      "                                                                                                  \n",
      " batch_normalization_21 (BatchN  (None, 35, 35, 64)  192         ['conv2d_21[0][0]']              \n",
      " ormalization)                                                                                    \n",
      "                                                                                                  \n",
      " batch_normalization_24 (BatchN  (None, 35, 35, 96)  288         ['conv2d_24[0][0]']              \n",
      " ormalization)                                                                                    \n",
      "                                                                                                  \n",
      " batch_normalization_25 (BatchN  (None, 35, 35, 64)  192         ['conv2d_25[0][0]']              \n",
      " ormalization)                                                                                    \n",
      "                                                                                                  \n",
      " activation_19 (Activation)     (None, 35, 35, 64)   0           ['batch_normalization_19[0][0]'] \n",
      "                                                                                                  \n",
      " activation_21 (Activation)     (None, 35, 35, 64)   0           ['batch_normalization_21[0][0]'] \n",
      "                                                                                                  \n",
      " activation_24 (Activation)     (None, 35, 35, 96)   0           ['batch_normalization_24[0][0]'] \n",
      "                                                                                                  \n",
      " activation_25 (Activation)     (None, 35, 35, 64)   0           ['batch_normalization_25[0][0]'] \n",
      "                                                                                                  \n",
      " mixed2 (Concatenate)           (None, 35, 35, 288)  0           ['activation_19[0][0]',          \n",
      "                                                                  'activation_21[0][0]',          \n",
      "                                                                  'activation_24[0][0]',          \n",
      "                                                                  'activation_25[0][0]']          \n",
      "                                                                                                  \n",
      " conv2d_27 (Conv2D)             (None, 35, 35, 64)   18432       ['mixed2[0][0]']                 \n",
      "                                                                                                  \n",
      " batch_normalization_27 (BatchN  (None, 35, 35, 64)  192         ['conv2d_27[0][0]']              \n",
      " ormalization)                                                                                    \n",
      "                                                                                                  \n",
      " activation_27 (Activation)     (None, 35, 35, 64)   0           ['batch_normalization_27[0][0]'] \n",
      "                                                                                                  \n",
      " conv2d_28 (Conv2D)             (None, 35, 35, 96)   55296       ['activation_27[0][0]']          \n",
      "                                                                                                  \n",
      " batch_normalization_28 (BatchN  (None, 35, 35, 96)  288         ['conv2d_28[0][0]']              \n",
      " ormalization)                                                                                    \n",
      "                                                                                                  \n",
      " activation_28 (Activation)     (None, 35, 35, 96)   0           ['batch_normalization_28[0][0]'] \n",
      "                                                                                                  \n",
      " conv2d_26 (Conv2D)             (None, 17, 17, 384)  995328      ['mixed2[0][0]']                 \n",
      "                                                                                                  \n",
      " conv2d_29 (Conv2D)             (None, 17, 17, 96)   82944       ['activation_28[0][0]']          \n",
      "                                                                                                  \n",
      " batch_normalization_26 (BatchN  (None, 17, 17, 384)  1152       ['conv2d_26[0][0]']              \n",
      " ormalization)                                                                                    \n",
      "                                                                                                  \n",
      " batch_normalization_29 (BatchN  (None, 17, 17, 96)  288         ['conv2d_29[0][0]']              \n",
      " ormalization)                                                                                    \n",
      "                                                                                                  \n",
      " activation_26 (Activation)     (None, 17, 17, 384)  0           ['batch_normalization_26[0][0]'] \n",
      "                                                                                                  \n",
      " activation_29 (Activation)     (None, 17, 17, 96)   0           ['batch_normalization_29[0][0]'] \n",
      "                                                                                                  \n",
      " max_pooling2d_2 (MaxPooling2D)  (None, 17, 17, 288)  0          ['mixed2[0][0]']                 \n",
      "                                                                                                  \n",
      " mixed3 (Concatenate)           (None, 17, 17, 768)  0           ['activation_26[0][0]',          \n",
      "                                                                  'activation_29[0][0]',          \n",
      "                                                                  'max_pooling2d_2[0][0]']        \n",
      "                                                                                                  \n",
      " conv2d_34 (Conv2D)             (None, 17, 17, 128)  98304       ['mixed3[0][0]']                 \n",
      "                                                                                                  \n",
      " batch_normalization_34 (BatchN  (None, 17, 17, 128)  384        ['conv2d_34[0][0]']              \n",
      " ormalization)                                                                                    \n",
      "                                                                                                  \n",
      " activation_34 (Activation)     (None, 17, 17, 128)  0           ['batch_normalization_34[0][0]'] \n",
      "                                                                                                  \n",
      " conv2d_35 (Conv2D)             (None, 17, 17, 128)  114688      ['activation_34[0][0]']          \n",
      "                                                                                                  \n",
      " batch_normalization_35 (BatchN  (None, 17, 17, 128)  384        ['conv2d_35[0][0]']              \n",
      " ormalization)                                                                                    \n",
      "                                                                                                  \n",
      " activation_35 (Activation)     (None, 17, 17, 128)  0           ['batch_normalization_35[0][0]'] \n",
      "                                                                                                  \n",
      " conv2d_31 (Conv2D)             (None, 17, 17, 128)  98304       ['mixed3[0][0]']                 \n",
      "                                                                                                  \n",
      " conv2d_36 (Conv2D)             (None, 17, 17, 128)  114688      ['activation_35[0][0]']          \n",
      "                                                                                                  \n",
      " batch_normalization_31 (BatchN  (None, 17, 17, 128)  384        ['conv2d_31[0][0]']              \n",
      " ormalization)                                                                                    \n",
      "                                                                                                  \n",
      " batch_normalization_36 (BatchN  (None, 17, 17, 128)  384        ['conv2d_36[0][0]']              \n",
      " ormalization)                                                                                    \n",
      "                                                                                                  \n",
      " activation_31 (Activation)     (None, 17, 17, 128)  0           ['batch_normalization_31[0][0]'] \n",
      "                                                                                                  \n",
      " activation_36 (Activation)     (None, 17, 17, 128)  0           ['batch_normalization_36[0][0]'] \n",
      "                                                                                                  \n",
      " conv2d_32 (Conv2D)             (None, 17, 17, 128)  114688      ['activation_31[0][0]']          \n",
      "                                                                                                  \n",
      " conv2d_37 (Conv2D)             (None, 17, 17, 128)  114688      ['activation_36[0][0]']          \n",
      "                                                                                                  \n",
      " batch_normalization_32 (BatchN  (None, 17, 17, 128)  384        ['conv2d_32[0][0]']              \n",
      " ormalization)                                                                                    \n",
      "                                                                                                  \n",
      " batch_normalization_37 (BatchN  (None, 17, 17, 128)  384        ['conv2d_37[0][0]']              \n",
      " ormalization)                                                                                    \n",
      "                                                                                                  \n",
      " activation_32 (Activation)     (None, 17, 17, 128)  0           ['batch_normalization_32[0][0]'] \n",
      "                                                                                                  \n",
      " activation_37 (Activation)     (None, 17, 17, 128)  0           ['batch_normalization_37[0][0]'] \n",
      "                                                                                                  \n",
      " average_pooling2d_3 (AveragePo  (None, 17, 17, 768)  0          ['mixed3[0][0]']                 \n",
      " oling2D)                                                                                         \n",
      "                                                                                                  \n",
      " conv2d_30 (Conv2D)             (None, 17, 17, 192)  147456      ['mixed3[0][0]']                 \n",
      "                                                                                                  \n",
      " conv2d_33 (Conv2D)             (None, 17, 17, 192)  172032      ['activation_32[0][0]']          \n",
      "                                                                                                  \n",
      " conv2d_38 (Conv2D)             (None, 17, 17, 192)  172032      ['activation_37[0][0]']          \n",
      "                                                                                                  \n",
      " conv2d_39 (Conv2D)             (None, 17, 17, 192)  147456      ['average_pooling2d_3[0][0]']    \n",
      "                                                                                                  \n",
      " batch_normalization_30 (BatchN  (None, 17, 17, 192)  576        ['conv2d_30[0][0]']              \n",
      " ormalization)                                                                                    \n",
      "                                                                                                  \n",
      " batch_normalization_33 (BatchN  (None, 17, 17, 192)  576        ['conv2d_33[0][0]']              \n",
      " ormalization)                                                                                    \n",
      "                                                                                                  \n",
      " batch_normalization_38 (BatchN  (None, 17, 17, 192)  576        ['conv2d_38[0][0]']              \n",
      " ormalization)                                                                                    \n",
      "                                                                                                  \n",
      " batch_normalization_39 (BatchN  (None, 17, 17, 192)  576        ['conv2d_39[0][0]']              \n",
      " ormalization)                                                                                    \n",
      "                                                                                                  \n",
      " activation_30 (Activation)     (None, 17, 17, 192)  0           ['batch_normalization_30[0][0]'] \n",
      "                                                                                                  \n",
      " activation_33 (Activation)     (None, 17, 17, 192)  0           ['batch_normalization_33[0][0]'] \n",
      "                                                                                                  \n",
      " activation_38 (Activation)     (None, 17, 17, 192)  0           ['batch_normalization_38[0][0]'] \n",
      "                                                                                                  \n",
      " activation_39 (Activation)     (None, 17, 17, 192)  0           ['batch_normalization_39[0][0]'] \n",
      "                                                                                                  \n",
      " mixed4 (Concatenate)           (None, 17, 17, 768)  0           ['activation_30[0][0]',          \n",
      "                                                                  'activation_33[0][0]',          \n",
      "                                                                  'activation_38[0][0]',          \n",
      "                                                                  'activation_39[0][0]']          \n",
      "                                                                                                  \n",
      " conv2d_44 (Conv2D)             (None, 17, 17, 160)  122880      ['mixed4[0][0]']                 \n",
      "                                                                                                  \n",
      " batch_normalization_44 (BatchN  (None, 17, 17, 160)  480        ['conv2d_44[0][0]']              \n",
      " ormalization)                                                                                    \n",
      "                                                                                                  \n",
      " activation_44 (Activation)     (None, 17, 17, 160)  0           ['batch_normalization_44[0][0]'] \n",
      "                                                                                                  \n",
      " conv2d_45 (Conv2D)             (None, 17, 17, 160)  179200      ['activation_44[0][0]']          \n",
      "                                                                                                  \n",
      " batch_normalization_45 (BatchN  (None, 17, 17, 160)  480        ['conv2d_45[0][0]']              \n",
      " ormalization)                                                                                    \n",
      "                                                                                                  \n",
      " activation_45 (Activation)     (None, 17, 17, 160)  0           ['batch_normalization_45[0][0]'] \n",
      "                                                                                                  \n",
      " conv2d_41 (Conv2D)             (None, 17, 17, 160)  122880      ['mixed4[0][0]']                 \n",
      "                                                                                                  \n",
      " conv2d_46 (Conv2D)             (None, 17, 17, 160)  179200      ['activation_45[0][0]']          \n",
      "                                                                                                  \n",
      " batch_normalization_41 (BatchN  (None, 17, 17, 160)  480        ['conv2d_41[0][0]']              \n",
      " ormalization)                                                                                    \n",
      "                                                                                                  \n",
      " batch_normalization_46 (BatchN  (None, 17, 17, 160)  480        ['conv2d_46[0][0]']              \n",
      " ormalization)                                                                                    \n",
      "                                                                                                  \n",
      " activation_41 (Activation)     (None, 17, 17, 160)  0           ['batch_normalization_41[0][0]'] \n",
      "                                                                                                  \n",
      " activation_46 (Activation)     (None, 17, 17, 160)  0           ['batch_normalization_46[0][0]'] \n",
      "                                                                                                  \n",
      " conv2d_42 (Conv2D)             (None, 17, 17, 160)  179200      ['activation_41[0][0]']          \n",
      "                                                                                                  \n",
      " conv2d_47 (Conv2D)             (None, 17, 17, 160)  179200      ['activation_46[0][0]']          \n",
      "                                                                                                  \n",
      " batch_normalization_42 (BatchN  (None, 17, 17, 160)  480        ['conv2d_42[0][0]']              \n",
      " ormalization)                                                                                    \n",
      "                                                                                                  \n",
      " batch_normalization_47 (BatchN  (None, 17, 17, 160)  480        ['conv2d_47[0][0]']              \n",
      " ormalization)                                                                                    \n",
      "                                                                                                  \n",
      " activation_42 (Activation)     (None, 17, 17, 160)  0           ['batch_normalization_42[0][0]'] \n",
      "                                                                                                  \n",
      " activation_47 (Activation)     (None, 17, 17, 160)  0           ['batch_normalization_47[0][0]'] \n",
      "                                                                                                  \n",
      " average_pooling2d_4 (AveragePo  (None, 17, 17, 768)  0          ['mixed4[0][0]']                 \n",
      " oling2D)                                                                                         \n",
      "                                                                                                  \n",
      " conv2d_40 (Conv2D)             (None, 17, 17, 192)  147456      ['mixed4[0][0]']                 \n",
      "                                                                                                  \n",
      " conv2d_43 (Conv2D)             (None, 17, 17, 192)  215040      ['activation_42[0][0]']          \n",
      "                                                                                                  \n",
      " conv2d_48 (Conv2D)             (None, 17, 17, 192)  215040      ['activation_47[0][0]']          \n",
      "                                                                                                  \n",
      " conv2d_49 (Conv2D)             (None, 17, 17, 192)  147456      ['average_pooling2d_4[0][0]']    \n",
      "                                                                                                  \n",
      " batch_normalization_40 (BatchN  (None, 17, 17, 192)  576        ['conv2d_40[0][0]']              \n",
      " ormalization)                                                                                    \n",
      "                                                                                                  \n",
      " batch_normalization_43 (BatchN  (None, 17, 17, 192)  576        ['conv2d_43[0][0]']              \n",
      " ormalization)                                                                                    \n",
      "                                                                                                  \n",
      " batch_normalization_48 (BatchN  (None, 17, 17, 192)  576        ['conv2d_48[0][0]']              \n",
      " ormalization)                                                                                    \n",
      "                                                                                                  \n",
      " batch_normalization_49 (BatchN  (None, 17, 17, 192)  576        ['conv2d_49[0][0]']              \n",
      " ormalization)                                                                                    \n",
      "                                                                                                  \n",
      " activation_40 (Activation)     (None, 17, 17, 192)  0           ['batch_normalization_40[0][0]'] \n",
      "                                                                                                  \n",
      " activation_43 (Activation)     (None, 17, 17, 192)  0           ['batch_normalization_43[0][0]'] \n",
      "                                                                                                  \n",
      " activation_48 (Activation)     (None, 17, 17, 192)  0           ['batch_normalization_48[0][0]'] \n",
      "                                                                                                  \n",
      " activation_49 (Activation)     (None, 17, 17, 192)  0           ['batch_normalization_49[0][0]'] \n",
      "                                                                                                  \n",
      " mixed5 (Concatenate)           (None, 17, 17, 768)  0           ['activation_40[0][0]',          \n",
      "                                                                  'activation_43[0][0]',          \n",
      "                                                                  'activation_48[0][0]',          \n",
      "                                                                  'activation_49[0][0]']          \n",
      "                                                                                                  \n",
      " conv2d_54 (Conv2D)             (None, 17, 17, 160)  122880      ['mixed5[0][0]']                 \n",
      "                                                                                                  \n",
      " batch_normalization_54 (BatchN  (None, 17, 17, 160)  480        ['conv2d_54[0][0]']              \n",
      " ormalization)                                                                                    \n",
      "                                                                                                  \n",
      " activation_54 (Activation)     (None, 17, 17, 160)  0           ['batch_normalization_54[0][0]'] \n",
      "                                                                                                  \n",
      " conv2d_55 (Conv2D)             (None, 17, 17, 160)  179200      ['activation_54[0][0]']          \n",
      "                                                                                                  \n",
      " batch_normalization_55 (BatchN  (None, 17, 17, 160)  480        ['conv2d_55[0][0]']              \n",
      " ormalization)                                                                                    \n",
      "                                                                                                  \n",
      " activation_55 (Activation)     (None, 17, 17, 160)  0           ['batch_normalization_55[0][0]'] \n",
      "                                                                                                  \n",
      " conv2d_51 (Conv2D)             (None, 17, 17, 160)  122880      ['mixed5[0][0]']                 \n",
      "                                                                                                  \n",
      " conv2d_56 (Conv2D)             (None, 17, 17, 160)  179200      ['activation_55[0][0]']          \n",
      "                                                                                                  \n",
      " batch_normalization_51 (BatchN  (None, 17, 17, 160)  480        ['conv2d_51[0][0]']              \n",
      " ormalization)                                                                                    \n",
      "                                                                                                  \n",
      " batch_normalization_56 (BatchN  (None, 17, 17, 160)  480        ['conv2d_56[0][0]']              \n",
      " ormalization)                                                                                    \n",
      "                                                                                                  \n",
      " activation_51 (Activation)     (None, 17, 17, 160)  0           ['batch_normalization_51[0][0]'] \n",
      "                                                                                                  \n",
      " activation_56 (Activation)     (None, 17, 17, 160)  0           ['batch_normalization_56[0][0]'] \n",
      "                                                                                                  \n",
      " conv2d_52 (Conv2D)             (None, 17, 17, 160)  179200      ['activation_51[0][0]']          \n",
      "                                                                                                  \n",
      " conv2d_57 (Conv2D)             (None, 17, 17, 160)  179200      ['activation_56[0][0]']          \n",
      "                                                                                                  \n",
      " batch_normalization_52 (BatchN  (None, 17, 17, 160)  480        ['conv2d_52[0][0]']              \n",
      " ormalization)                                                                                    \n",
      "                                                                                                  \n",
      " batch_normalization_57 (BatchN  (None, 17, 17, 160)  480        ['conv2d_57[0][0]']              \n",
      " ormalization)                                                                                    \n",
      "                                                                                                  \n",
      " activation_52 (Activation)     (None, 17, 17, 160)  0           ['batch_normalization_52[0][0]'] \n",
      "                                                                                                  \n",
      " activation_57 (Activation)     (None, 17, 17, 160)  0           ['batch_normalization_57[0][0]'] \n",
      "                                                                                                  \n",
      " average_pooling2d_5 (AveragePo  (None, 17, 17, 768)  0          ['mixed5[0][0]']                 \n",
      " oling2D)                                                                                         \n",
      "                                                                                                  \n",
      " conv2d_50 (Conv2D)             (None, 17, 17, 192)  147456      ['mixed5[0][0]']                 \n",
      "                                                                                                  \n",
      " conv2d_53 (Conv2D)             (None, 17, 17, 192)  215040      ['activation_52[0][0]']          \n",
      "                                                                                                  \n",
      " conv2d_58 (Conv2D)             (None, 17, 17, 192)  215040      ['activation_57[0][0]']          \n",
      "                                                                                                  \n",
      " conv2d_59 (Conv2D)             (None, 17, 17, 192)  147456      ['average_pooling2d_5[0][0]']    \n",
      "                                                                                                  \n",
      " batch_normalization_50 (BatchN  (None, 17, 17, 192)  576        ['conv2d_50[0][0]']              \n",
      " ormalization)                                                                                    \n",
      "                                                                                                  \n",
      " batch_normalization_53 (BatchN  (None, 17, 17, 192)  576        ['conv2d_53[0][0]']              \n",
      " ormalization)                                                                                    \n",
      "                                                                                                  \n",
      " batch_normalization_58 (BatchN  (None, 17, 17, 192)  576        ['conv2d_58[0][0]']              \n",
      " ormalization)                                                                                    \n",
      "                                                                                                  \n",
      " batch_normalization_59 (BatchN  (None, 17, 17, 192)  576        ['conv2d_59[0][0]']              \n",
      " ormalization)                                                                                    \n",
      "                                                                                                  \n",
      " activation_50 (Activation)     (None, 17, 17, 192)  0           ['batch_normalization_50[0][0]'] \n",
      "                                                                                                  \n",
      " activation_53 (Activation)     (None, 17, 17, 192)  0           ['batch_normalization_53[0][0]'] \n",
      "                                                                                                  \n",
      " activation_58 (Activation)     (None, 17, 17, 192)  0           ['batch_normalization_58[0][0]'] \n",
      "                                                                                                  \n",
      " activation_59 (Activation)     (None, 17, 17, 192)  0           ['batch_normalization_59[0][0]'] \n",
      "                                                                                                  \n",
      " mixed6 (Concatenate)           (None, 17, 17, 768)  0           ['activation_50[0][0]',          \n",
      "                                                                  'activation_53[0][0]',          \n",
      "                                                                  'activation_58[0][0]',          \n",
      "                                                                  'activation_59[0][0]']          \n",
      "                                                                                                  \n",
      " conv2d_64 (Conv2D)             (None, 17, 17, 192)  147456      ['mixed6[0][0]']                 \n",
      "                                                                                                  \n",
      " batch_normalization_64 (BatchN  (None, 17, 17, 192)  576        ['conv2d_64[0][0]']              \n",
      " ormalization)                                                                                    \n",
      "                                                                                                  \n",
      " activation_64 (Activation)     (None, 17, 17, 192)  0           ['batch_normalization_64[0][0]'] \n",
      "                                                                                                  \n",
      " conv2d_65 (Conv2D)             (None, 17, 17, 192)  258048      ['activation_64[0][0]']          \n",
      "                                                                                                  \n",
      " batch_normalization_65 (BatchN  (None, 17, 17, 192)  576        ['conv2d_65[0][0]']              \n",
      " ormalization)                                                                                    \n",
      "                                                                                                  \n",
      " activation_65 (Activation)     (None, 17, 17, 192)  0           ['batch_normalization_65[0][0]'] \n",
      "                                                                                                  \n",
      " conv2d_61 (Conv2D)             (None, 17, 17, 192)  147456      ['mixed6[0][0]']                 \n",
      "                                                                                                  \n",
      " conv2d_66 (Conv2D)             (None, 17, 17, 192)  258048      ['activation_65[0][0]']          \n",
      "                                                                                                  \n",
      " batch_normalization_61 (BatchN  (None, 17, 17, 192)  576        ['conv2d_61[0][0]']              \n",
      " ormalization)                                                                                    \n",
      "                                                                                                  \n",
      " batch_normalization_66 (BatchN  (None, 17, 17, 192)  576        ['conv2d_66[0][0]']              \n",
      " ormalization)                                                                                    \n",
      "                                                                                                  \n",
      " activation_61 (Activation)     (None, 17, 17, 192)  0           ['batch_normalization_61[0][0]'] \n",
      "                                                                                                  \n",
      " activation_66 (Activation)     (None, 17, 17, 192)  0           ['batch_normalization_66[0][0]'] \n",
      "                                                                                                  \n",
      " conv2d_62 (Conv2D)             (None, 17, 17, 192)  258048      ['activation_61[0][0]']          \n",
      "                                                                                                  \n",
      " conv2d_67 (Conv2D)             (None, 17, 17, 192)  258048      ['activation_66[0][0]']          \n",
      "                                                                                                  \n",
      " batch_normalization_62 (BatchN  (None, 17, 17, 192)  576        ['conv2d_62[0][0]']              \n",
      " ormalization)                                                                                    \n",
      "                                                                                                  \n",
      " batch_normalization_67 (BatchN  (None, 17, 17, 192)  576        ['conv2d_67[0][0]']              \n",
      " ormalization)                                                                                    \n",
      "                                                                                                  \n",
      " activation_62 (Activation)     (None, 17, 17, 192)  0           ['batch_normalization_62[0][0]'] \n",
      "                                                                                                  \n",
      " activation_67 (Activation)     (None, 17, 17, 192)  0           ['batch_normalization_67[0][0]'] \n",
      "                                                                                                  \n",
      " average_pooling2d_6 (AveragePo  (None, 17, 17, 768)  0          ['mixed6[0][0]']                 \n",
      " oling2D)                                                                                         \n",
      "                                                                                                  \n",
      " conv2d_60 (Conv2D)             (None, 17, 17, 192)  147456      ['mixed6[0][0]']                 \n",
      "                                                                                                  \n",
      " conv2d_63 (Conv2D)             (None, 17, 17, 192)  258048      ['activation_62[0][0]']          \n",
      "                                                                                                  \n",
      " conv2d_68 (Conv2D)             (None, 17, 17, 192)  258048      ['activation_67[0][0]']          \n",
      "                                                                                                  \n",
      " conv2d_69 (Conv2D)             (None, 17, 17, 192)  147456      ['average_pooling2d_6[0][0]']    \n",
      "                                                                                                  \n",
      " batch_normalization_60 (BatchN  (None, 17, 17, 192)  576        ['conv2d_60[0][0]']              \n",
      " ormalization)                                                                                    \n",
      "                                                                                                  \n",
      " batch_normalization_63 (BatchN  (None, 17, 17, 192)  576        ['conv2d_63[0][0]']              \n",
      " ormalization)                                                                                    \n",
      "                                                                                                  \n",
      " batch_normalization_68 (BatchN  (None, 17, 17, 192)  576        ['conv2d_68[0][0]']              \n",
      " ormalization)                                                                                    \n",
      "                                                                                                  \n",
      " batch_normalization_69 (BatchN  (None, 17, 17, 192)  576        ['conv2d_69[0][0]']              \n",
      " ormalization)                                                                                    \n",
      "                                                                                                  \n",
      " activation_60 (Activation)     (None, 17, 17, 192)  0           ['batch_normalization_60[0][0]'] \n",
      "                                                                                                  \n",
      " activation_63 (Activation)     (None, 17, 17, 192)  0           ['batch_normalization_63[0][0]'] \n",
      "                                                                                                  \n",
      " activation_68 (Activation)     (None, 17, 17, 192)  0           ['batch_normalization_68[0][0]'] \n",
      "                                                                                                  \n",
      " activation_69 (Activation)     (None, 17, 17, 192)  0           ['batch_normalization_69[0][0]'] \n",
      "                                                                                                  \n",
      " mixed7 (Concatenate)           (None, 17, 17, 768)  0           ['activation_60[0][0]',          \n",
      "                                                                  'activation_63[0][0]',          \n",
      "                                                                  'activation_68[0][0]',          \n",
      "                                                                  'activation_69[0][0]']          \n",
      "                                                                                                  \n",
      " conv2d_72 (Conv2D)             (None, 17, 17, 192)  147456      ['mixed7[0][0]']                 \n",
      "                                                                                                  \n",
      " batch_normalization_72 (BatchN  (None, 17, 17, 192)  576        ['conv2d_72[0][0]']              \n",
      " ormalization)                                                                                    \n",
      "                                                                                                  \n",
      " activation_72 (Activation)     (None, 17, 17, 192)  0           ['batch_normalization_72[0][0]'] \n",
      "                                                                                                  \n",
      " conv2d_73 (Conv2D)             (None, 17, 17, 192)  258048      ['activation_72[0][0]']          \n",
      "                                                                                                  \n",
      " batch_normalization_73 (BatchN  (None, 17, 17, 192)  576        ['conv2d_73[0][0]']              \n",
      " ormalization)                                                                                    \n",
      "                                                                                                  \n",
      " activation_73 (Activation)     (None, 17, 17, 192)  0           ['batch_normalization_73[0][0]'] \n",
      "                                                                                                  \n",
      " conv2d_70 (Conv2D)             (None, 17, 17, 192)  147456      ['mixed7[0][0]']                 \n",
      "                                                                                                  \n",
      " conv2d_74 (Conv2D)             (None, 17, 17, 192)  258048      ['activation_73[0][0]']          \n",
      "                                                                                                  \n",
      " batch_normalization_70 (BatchN  (None, 17, 17, 192)  576        ['conv2d_70[0][0]']              \n",
      " ormalization)                                                                                    \n",
      "                                                                                                  \n",
      " batch_normalization_74 (BatchN  (None, 17, 17, 192)  576        ['conv2d_74[0][0]']              \n",
      " ormalization)                                                                                    \n",
      "                                                                                                  \n",
      " activation_70 (Activation)     (None, 17, 17, 192)  0           ['batch_normalization_70[0][0]'] \n",
      "                                                                                                  \n",
      " activation_74 (Activation)     (None, 17, 17, 192)  0           ['batch_normalization_74[0][0]'] \n",
      "                                                                                                  \n",
      " conv2d_71 (Conv2D)             (None, 8, 8, 320)    552960      ['activation_70[0][0]']          \n",
      "                                                                                                  \n",
      " conv2d_75 (Conv2D)             (None, 8, 8, 192)    331776      ['activation_74[0][0]']          \n",
      "                                                                                                  \n",
      " batch_normalization_71 (BatchN  (None, 8, 8, 320)   960         ['conv2d_71[0][0]']              \n",
      " ormalization)                                                                                    \n",
      "                                                                                                  \n",
      " batch_normalization_75 (BatchN  (None, 8, 8, 192)   576         ['conv2d_75[0][0]']              \n",
      " ormalization)                                                                                    \n",
      "                                                                                                  \n",
      " activation_71 (Activation)     (None, 8, 8, 320)    0           ['batch_normalization_71[0][0]'] \n",
      "                                                                                                  \n",
      " activation_75 (Activation)     (None, 8, 8, 192)    0           ['batch_normalization_75[0][0]'] \n",
      "                                                                                                  \n",
      " max_pooling2d_3 (MaxPooling2D)  (None, 8, 8, 768)   0           ['mixed7[0][0]']                 \n",
      "                                                                                                  \n",
      " mixed8 (Concatenate)           (None, 8, 8, 1280)   0           ['activation_71[0][0]',          \n",
      "                                                                  'activation_75[0][0]',          \n",
      "                                                                  'max_pooling2d_3[0][0]']        \n",
      "                                                                                                  \n",
      " conv2d_80 (Conv2D)             (None, 8, 8, 448)    573440      ['mixed8[0][0]']                 \n",
      "                                                                                                  \n",
      " batch_normalization_80 (BatchN  (None, 8, 8, 448)   1344        ['conv2d_80[0][0]']              \n",
      " ormalization)                                                                                    \n",
      "                                                                                                  \n",
      " activation_80 (Activation)     (None, 8, 8, 448)    0           ['batch_normalization_80[0][0]'] \n",
      "                                                                                                  \n",
      " conv2d_77 (Conv2D)             (None, 8, 8, 384)    491520      ['mixed8[0][0]']                 \n",
      "                                                                                                  \n",
      " conv2d_81 (Conv2D)             (None, 8, 8, 384)    1548288     ['activation_80[0][0]']          \n",
      "                                                                                                  \n",
      " batch_normalization_77 (BatchN  (None, 8, 8, 384)   1152        ['conv2d_77[0][0]']              \n",
      " ormalization)                                                                                    \n",
      "                                                                                                  \n",
      " batch_normalization_81 (BatchN  (None, 8, 8, 384)   1152        ['conv2d_81[0][0]']              \n",
      " ormalization)                                                                                    \n",
      "                                                                                                  \n",
      " activation_77 (Activation)     (None, 8, 8, 384)    0           ['batch_normalization_77[0][0]'] \n",
      "                                                                                                  \n",
      " activation_81 (Activation)     (None, 8, 8, 384)    0           ['batch_normalization_81[0][0]'] \n",
      "                                                                                                  \n",
      " conv2d_78 (Conv2D)             (None, 8, 8, 384)    442368      ['activation_77[0][0]']          \n",
      "                                                                                                  \n",
      " conv2d_79 (Conv2D)             (None, 8, 8, 384)    442368      ['activation_77[0][0]']          \n",
      "                                                                                                  \n",
      " conv2d_82 (Conv2D)             (None, 8, 8, 384)    442368      ['activation_81[0][0]']          \n",
      "                                                                                                  \n",
      " conv2d_83 (Conv2D)             (None, 8, 8, 384)    442368      ['activation_81[0][0]']          \n",
      "                                                                                                  \n",
      " average_pooling2d_7 (AveragePo  (None, 8, 8, 1280)  0           ['mixed8[0][0]']                 \n",
      " oling2D)                                                                                         \n",
      "                                                                                                  \n",
      " conv2d_76 (Conv2D)             (None, 8, 8, 320)    409600      ['mixed8[0][0]']                 \n",
      "                                                                                                  \n",
      " batch_normalization_78 (BatchN  (None, 8, 8, 384)   1152        ['conv2d_78[0][0]']              \n",
      " ormalization)                                                                                    \n",
      "                                                                                                  \n",
      " batch_normalization_79 (BatchN  (None, 8, 8, 384)   1152        ['conv2d_79[0][0]']              \n",
      " ormalization)                                                                                    \n",
      "                                                                                                  \n",
      " batch_normalization_82 (BatchN  (None, 8, 8, 384)   1152        ['conv2d_82[0][0]']              \n",
      " ormalization)                                                                                    \n",
      "                                                                                                  \n",
      " batch_normalization_83 (BatchN  (None, 8, 8, 384)   1152        ['conv2d_83[0][0]']              \n",
      " ormalization)                                                                                    \n",
      "                                                                                                  \n",
      " conv2d_84 (Conv2D)             (None, 8, 8, 192)    245760      ['average_pooling2d_7[0][0]']    \n",
      "                                                                                                  \n",
      " batch_normalization_76 (BatchN  (None, 8, 8, 320)   960         ['conv2d_76[0][0]']              \n",
      " ormalization)                                                                                    \n",
      "                                                                                                  \n",
      " activation_78 (Activation)     (None, 8, 8, 384)    0           ['batch_normalization_78[0][0]'] \n",
      "                                                                                                  \n",
      " activation_79 (Activation)     (None, 8, 8, 384)    0           ['batch_normalization_79[0][0]'] \n",
      "                                                                                                  \n",
      " activation_82 (Activation)     (None, 8, 8, 384)    0           ['batch_normalization_82[0][0]'] \n",
      "                                                                                                  \n",
      " activation_83 (Activation)     (None, 8, 8, 384)    0           ['batch_normalization_83[0][0]'] \n",
      "                                                                                                  \n",
      " batch_normalization_84 (BatchN  (None, 8, 8, 192)   576         ['conv2d_84[0][0]']              \n",
      " ormalization)                                                                                    \n",
      "                                                                                                  \n",
      " activation_76 (Activation)     (None, 8, 8, 320)    0           ['batch_normalization_76[0][0]'] \n",
      "                                                                                                  \n",
      " mixed9_0 (Concatenate)         (None, 8, 8, 768)    0           ['activation_78[0][0]',          \n",
      "                                                                  'activation_79[0][0]']          \n",
      "                                                                                                  \n",
      " concatenate (Concatenate)      (None, 8, 8, 768)    0           ['activation_82[0][0]',          \n",
      "                                                                  'activation_83[0][0]']          \n",
      "                                                                                                  \n",
      " activation_84 (Activation)     (None, 8, 8, 192)    0           ['batch_normalization_84[0][0]'] \n",
      "                                                                                                  \n",
      " mixed9 (Concatenate)           (None, 8, 8, 2048)   0           ['activation_76[0][0]',          \n",
      "                                                                  'mixed9_0[0][0]',               \n",
      "                                                                  'concatenate[0][0]',            \n",
      "                                                                  'activation_84[0][0]']          \n",
      "                                                                                                  \n",
      " conv2d_89 (Conv2D)             (None, 8, 8, 448)    917504      ['mixed9[0][0]']                 \n",
      "                                                                                                  \n",
      " batch_normalization_89 (BatchN  (None, 8, 8, 448)   1344        ['conv2d_89[0][0]']              \n",
      " ormalization)                                                                                    \n",
      "                                                                                                  \n",
      " activation_89 (Activation)     (None, 8, 8, 448)    0           ['batch_normalization_89[0][0]'] \n",
      "                                                                                                  \n",
      " conv2d_86 (Conv2D)             (None, 8, 8, 384)    786432      ['mixed9[0][0]']                 \n",
      "                                                                                                  \n",
      " conv2d_90 (Conv2D)             (None, 8, 8, 384)    1548288     ['activation_89[0][0]']          \n",
      "                                                                                                  \n",
      " batch_normalization_86 (BatchN  (None, 8, 8, 384)   1152        ['conv2d_86[0][0]']              \n",
      " ormalization)                                                                                    \n",
      "                                                                                                  \n",
      " batch_normalization_90 (BatchN  (None, 8, 8, 384)   1152        ['conv2d_90[0][0]']              \n",
      " ormalization)                                                                                    \n",
      "                                                                                                  \n",
      " activation_86 (Activation)     (None, 8, 8, 384)    0           ['batch_normalization_86[0][0]'] \n",
      "                                                                                                  \n",
      " activation_90 (Activation)     (None, 8, 8, 384)    0           ['batch_normalization_90[0][0]'] \n",
      "                                                                                                  \n",
      " conv2d_87 (Conv2D)             (None, 8, 8, 384)    442368      ['activation_86[0][0]']          \n",
      "                                                                                                  \n",
      " conv2d_88 (Conv2D)             (None, 8, 8, 384)    442368      ['activation_86[0][0]']          \n",
      "                                                                                                  \n",
      " conv2d_91 (Conv2D)             (None, 8, 8, 384)    442368      ['activation_90[0][0]']          \n",
      "                                                                                                  \n",
      " conv2d_92 (Conv2D)             (None, 8, 8, 384)    442368      ['activation_90[0][0]']          \n",
      "                                                                                                  \n",
      " average_pooling2d_8 (AveragePo  (None, 8, 8, 2048)  0           ['mixed9[0][0]']                 \n",
      " oling2D)                                                                                         \n",
      "                                                                                                  \n",
      " conv2d_85 (Conv2D)             (None, 8, 8, 320)    655360      ['mixed9[0][0]']                 \n",
      "                                                                                                  \n",
      " batch_normalization_87 (BatchN  (None, 8, 8, 384)   1152        ['conv2d_87[0][0]']              \n",
      " ormalization)                                                                                    \n",
      "                                                                                                  \n",
      " batch_normalization_88 (BatchN  (None, 8, 8, 384)   1152        ['conv2d_88[0][0]']              \n",
      " ormalization)                                                                                    \n",
      "                                                                                                  \n",
      " batch_normalization_91 (BatchN  (None, 8, 8, 384)   1152        ['conv2d_91[0][0]']              \n",
      " ormalization)                                                                                    \n",
      "                                                                                                  \n",
      " batch_normalization_92 (BatchN  (None, 8, 8, 384)   1152        ['conv2d_92[0][0]']              \n",
      " ormalization)                                                                                    \n",
      "                                                                                                  \n",
      " conv2d_93 (Conv2D)             (None, 8, 8, 192)    393216      ['average_pooling2d_8[0][0]']    \n",
      "                                                                                                  \n",
      " batch_normalization_85 (BatchN  (None, 8, 8, 320)   960         ['conv2d_85[0][0]']              \n",
      " ormalization)                                                                                    \n",
      "                                                                                                  \n",
      " activation_87 (Activation)     (None, 8, 8, 384)    0           ['batch_normalization_87[0][0]'] \n",
      "                                                                                                  \n",
      " activation_88 (Activation)     (None, 8, 8, 384)    0           ['batch_normalization_88[0][0]'] \n",
      "                                                                                                  \n",
      " activation_91 (Activation)     (None, 8, 8, 384)    0           ['batch_normalization_91[0][0]'] \n",
      "                                                                                                  \n",
      " activation_92 (Activation)     (None, 8, 8, 384)    0           ['batch_normalization_92[0][0]'] \n",
      "                                                                                                  \n",
      " batch_normalization_93 (BatchN  (None, 8, 8, 192)   576         ['conv2d_93[0][0]']              \n",
      " ormalization)                                                                                    \n",
      "                                                                                                  \n",
      " activation_85 (Activation)     (None, 8, 8, 320)    0           ['batch_normalization_85[0][0]'] \n",
      "                                                                                                  \n",
      " mixed9_1 (Concatenate)         (None, 8, 8, 768)    0           ['activation_87[0][0]',          \n",
      "                                                                  'activation_88[0][0]']          \n",
      "                                                                                                  \n",
      " concatenate_1 (Concatenate)    (None, 8, 8, 768)    0           ['activation_91[0][0]',          \n",
      "                                                                  'activation_92[0][0]']          \n",
      "                                                                                                  \n",
      " activation_93 (Activation)     (None, 8, 8, 192)    0           ['batch_normalization_93[0][0]'] \n",
      "                                                                                                  \n",
      " mixed10 (Concatenate)          (None, 8, 8, 2048)   0           ['activation_85[0][0]',          \n",
      "                                                                  'mixed9_1[0][0]',               \n",
      "                                                                  'concatenate_1[0][0]',          \n",
      "                                                                  'activation_93[0][0]']          \n",
      "                                                                                                  \n",
      " avg_pool (GlobalAveragePooling  (None, 2048)        0           ['mixed10[0][0]']                \n",
      " 2D)                                                                                              \n",
      "                                                                                                  \n",
      "==================================================================================================\n",
      "Total params: 21,802,784\n",
…
      " Layer (type)                   Output Shape         Param #     Connected to                     \n",
      "==================================================================================================\n",
      " input_5 (InputLayer)           [(None, 31)]         0           []                               \n",
      "                                                                                                  \n",
      " input_4 (InputLayer)           [(None, 2048)]       0           []                               \n",
      "                                                                                                  \n",
      " embedding_1 (Embedding)        (None, 31, 256)      1131776     ['input_5[0][0]']                \n",
      "                                                                                                  \n",
      " dropout_2 (Dropout)            (None, 2048)         0           ['input_4[0][0]']                \n",
      "                                                                                                  \n",
      " dropout_3 (Dropout)            (None, 31, 256)      0           ['embedding_1[0][0]']            \n",
      "                                                                                                  \n",
      " dense_1 (Dense)                (None, 256)          524544      ['dropout_2[0][0]']              \n",
      "                                                                                                  \n",
      " lstm_1 (LSTM)                  (None, 256)          525312      ['dropout_3[0][0]']              \n",
      "                                                                                                  \n",
      " add (Add)                      (None, 256)          0           ['dense_1[0][0]',                \n",
      "                                                                  'lstm_1[0][0]']                 \n",
      "                                                                                                  \n",
      " dense_2 (Dense)                (None, 256)          65792       ['add[0][0]']                    \n",
      "                                                                                                  \n",
      " dense_3 (Dense)                (None, 4421)         1136197     ['dense_2[0][0]']                \n",
      "                                                                                                  \n",
      "==================================================================================================\n",
      "Total params: 3,383,621\n",
      "Trainable params: 3,383,621\n",
      "Non-trainable params: 0\n",
      "__________________________________________________________________________________________________\n",
…
